…
rkers=8, workspace=None
[34m[1mtrain:[0m D:\Github\Traffic-Vehicle-Monitoring-System\assets\training\traffic_dataset\_tmp_train\accident_ds_balanced\train... found 10190 images in 2 classes  
[34m[1mval:[0m D:\Github\Traffic-Vehicle-Monitoring-System\assets\training\traffic_dataset\_tmp_train\accident_ds_balanced\val... found 2548 images in 2 classes  
[34m[1mtest:[0m None...
Overriding model.yaml nc=1000 with nc=2

                   from  n    params  module                                       arguments                     
  0                  -1  1       928  ultralytics.nn.modules.conv.Conv             [3, 32, 3, 2]                 
  1                  -1  1     18560  ultralytics.nn.modules.conv.Conv             [32, 64, 3, 2]                
  2                  -1  1     29056  ultralytics.nn.modules.block.C2f             [64, 64, 1, True]             
  3                  -1  1     73984  ultralytics.nn.modules.conv.Conv             [64, 128, 3, 2]               
  4                  -1  2    197632  ultralytics.nn.modules.block.C2f             [128, 128, 2, True]           
  5                  -1  1    295424  ultralytics.nn.modules.conv.Conv             [128, 256, 3, 2]              
  6                  -1  2    788480  ultralytics.nn.modules.block.C2f             [256, 256, 2, True]           
  7                  -1  1   1180672  ultralytics.nn.modules.conv.Conv             [256, 512, 3, 2]              
  8                  -1  1   1838080  ultralytics.nn.modules.block.C2f             [512, 512, 1, True]           
  9                  -1  1    660482  ultralytics.nn.modules.head.Classify         [512, 2]                      
YOLOv8s-cls summary: 56 layers, 5,083,298 parameters, 5,083,298 gradients, 12.6 GFLOPs
Transferred 156/158 items from pretrained weights
[34m[1mtrain: [0mFast image access  (ping: 0.00.0 ms, read: 438.9149.2 MB/s, size: 25.7 KB)
[K[34m[1mtrain: [0mScanning D:\Github\Traffic-Vehicle-Monitoring-System\assets\training\traffic_dataset\_tmp_train\accident_ds_ba
…
